…
      "- vit.embeddings.patch_embeddings.projection.weight: found shape torch.Size([768, 3, 16, 16]) in the checkpoint and torch.Size([768, 256, 1, 1]) in the model instantiated\n",
      "You should probably TRAIN this model on a down-stream task to be able to use it for predictions and inference.\n"
     ]
    }
   ],
   "source": [
    "model = EEGViT_pretrained()"
   ]
  },
  {
   "cell_type": "code",
   "execution_count": 22,
   "metadata": {},
   "outputs": [
    {
     "name": "stdout",
     "output_type": "stream",
     "text": [
      "ViTModel(\n",
      "  (embeddings): ViTEmbeddings(\n",
      "    (patch_embeddings): ViTPatchEmbeddings(\n",
      "      (projection): Conv2d(1, 256, kernel_size=(1, 36), stride=(1, 36), padding=(0, 2))\n",
      "    )\n",
      "    (dropout): Dropout(p=0.1, inplace=False)\n",
      "  )\n",
      "  (encoder): ViTEncoder(\n",
      "    (layer): ModuleList(\n",
      "      (0): ViTLayer(\n",
      "        (attention): ViTAttention(\n",
      "          (attention): ViTSelfAttention(\n",
      "            (query): Linear(in_features=768, out_features=768, bias=True)\n",
      "            (key): Linear(in_features=768, out_features=768, bias=True)\n",
      "            (value): Linear(in_features=768, out_features=768, bias=True)\n",
      "            (dropout): Dropout(p=0.1, inplace=False)\n",
      "          )\n",
      "          (output): ViTSelfOutput(\n",
      "            (dense): Linear(in_features=768, out_features=768, bias=True)\n",
      "            (dropout): Dropout(p=0.1, inplace=False)\n",
      "          )\n",
      "        )\n",
      "        (intermediate): ViTIntermediate(\n",
      "          (dense): Linear(in_features=768, out_features=3072, bias=True)\n",
      "          (intermediate_act_fn): GELUActivation()\n",
      "        )\n",
      "        (output): ViTOutput(\n",
      "          (dense): Linear(in_features=3072, out_features=768, bias=True)\n",
      "          (dropout): Dropout(p=0.1, inplace=False)\n",
      "        )\n",
      "        (layernorm_before): LayerNorm((768,), eps=1e-12, elementwise_affine=True)\n",
      "        (layernorm_after): LayerNorm((768,), eps=1e-12, elementwise_affine=True)\n",
      "      )\n",
      "      (1): ViTLayer(\n",
      "        (attention): ViTAttention(\n",
      "          (attention): ViTSelfAttention(\n",
      "            (query): Linear(in_features=768, out_features=768, bias=True)\n",
      "            (key): Linear(in_features=768, out_features=768, bias=True)\n",
      "            (value): Linear(in_features=768, out_features=768, bias=True)\n",
      "            (dropout): Dropout(p=0.1, inplace=False)\n",
      "          )\n",
      "          (output): ViTSelfOutput(\n",
      "            (dense): Linear(in_features=768, out_features=768, bias=True)\n",
      "            (dropout): Dropout(p=0.1, inplace=False)\n",
      "          )\n",
      "        )\n",
      "        (intermediate): ViTIntermediate(\n",
      "          (dense): Linear(in_features=768, out_features=3072, bias=True)\n",
      "          (intermediate_act_fn): GELUActivation()\n",
      "        )\n",
      "        (output): ViTOutput(\n",
      "          (dense): Linear(in_features=3072, out_features=768, bias=True)\n",
      "          (dropout): Dropout(p=0.1, inplace=False)\n",
      "        )\n",
      "        (layernorm_before): LayerNorm((768,), eps=1e-12, elementwise_affine=True)\n",
      "        (layernorm_after): LayerNorm((768,), eps=1e-12, elementwise_affine=True)\n",
      "      )\n",
      "      (2): ViTLayer(\n",
      "        (attention): ViTAttention(\n",
      "          (attention): ViTSelfAttention(\n",
      "            (query): Linear(in_features=768, out_features=768, bias=True)\n",
      "            (key): Linear(in_features=768, out_features=768, bias=True)\n",
      "            (value): Linear(in_features=768, out_features=768, bias=True)\n",
      "            (dropout): Dropout(p=0.1, inplace=False)\n",
      "          )\n",
      "          (output): ViTSelfOutput(\n",
      "            (dense): Linear(in_features=768, out_features=768, bias=True)\n",
      "            (dropout): Dropout(p=0.1, inplace=False)\n",
      "          )\n",
      "        )\n",
      "        (intermediate): ViTIntermediate(\n",
      "          (dense): Linear(in_features=768, out_features=3072, bias=True)\n",
      "          (intermediate_act_fn): GELUActivation()\n",
      "        )\n",
      "        (output): ViTOutput(\n",
      "          (dense): Linear(in_features=3072, out_features=768, bias=True)\n",
      "          (dropout): Dropout(p=0.1, inplace=False)\n",
      "        )\n",
      "        (layernorm_before): LayerNorm((768,), eps=1e-12, elementwise_affine=True)\n",
      "        (layernorm_after): LayerNorm((768,), eps=1e-12, elementwise_affine=True)\n",
      "      )\n",
      "      (3): ViTLayer(\n",
      "        (attention): ViTAttention(\n",
      "          (attention): ViTSelfAttention(\n",
      "            (query): Linear(in_features=768, out_features=768, bias=True)\n",
      "            (key): Linear(in_features=768, out_features=768, bias=True)\n",
      "            (value): Linear(in_features=768, out_features=768, bias=True)\n",
      "            (dropout): Dropout(p=0.1, inplace=False)\n",
      "          )\n",
      "          (output): ViTSelfOutput(\n",
      "            (dense): Linear(in_features=768, out_features=768, bias=True)\n",
      "            (dropout): Dropout(p=0.1, inplace=False)\n",
      "          )\n",
      "        )\n",
      "        (intermediate): ViTIntermediate(\n",
      "          (dense): Linear(in_features=768, out_features=3072, bias=True)\n",
      "          (intermediate_act_fn): GELUActivation()\n",
      "        )\n",
      "        (output): ViTOutput(\n",
      "          (dense): Linear(in_features=3072, out_features=768, bias=True)\n",
      "          (dropout): Dropout(p=0.1, inplace=False)\n",
      "        )\n",
      "        (layernorm_before): LayerNorm((768,), eps=1e-12, elementwise_affine=True)\n",
      "        (layernorm_after): LayerNorm((768,), eps=1e-12, elementwise_affine=True)\n",
      "      )\n",
      "      (4): ViTLayer(\n",
      "        (attention): ViTAttention(\n",
      "          (attention): ViTSelfAttention(\n",
      "            (query): Linear(in_features=768, out_features=768, bias=True)\n",
      "            (key): Linear(in_features=768, out_features=768, bias=True)\n",
      "            (value): Linear(in_features=768, out_features=768, bias=True)\n",
      "            (dropout): Dropout(p=0.1, inplace=False)\n",
      "          )\n",
      "          (output): ViTSelfOutput(\n",
      "            (dense): Linear(in_features=768, out_features=768, bias=True)\n",
      "            (dropout): Dropout(p=0.1, inplace=False)\n",
      "          )\n",
      "        )\n",
      "        (intermediate): ViTIntermediate(\n",
      "          (dense): Linear(in_features=768, out_features=3072, bias=True)\n",
      "          (intermediate_act_fn): GELUActivation()\n",
      "        )\n",
      "        (output): ViTOutput(\n",
      "          (dense): Linear(in_features=3072, out_features=768, bias=True)\n",
      "          (dropout): Dropout(p=0.1, inplace=False)\n",
      "        )\n",
      "        (layernorm_before): LayerNorm((768,), eps=1e-12, elementwise_affine=True)\n",
      "        (layernorm_after): LayerNorm((768,), eps=1e-12, elementwise_affine=True)\n",
      "      )\n",
      "      (5): ViTLayer(\n",
      "        (attention): ViTAttention(\n",
      "          (attention): ViTSelfAttention(\n",
      "            (query): Linear(in_features=768, out_features=768, bias=True)\n",
      "            (key): Linear(in_features=768, out_features=768, bias=True)\n",
      "            (value): Linear(in_features=768, out_features=768, bias=True)\n",
      "            (dropout): Dropout(p=0.1, inplace=False)\n",
      "          )\n",
      "          (output): ViTSelfOutput(\n",
      "            (dense): Linear(in_features=768, out_features=768, bias=True)\n",
      "            (dropout): Dropout(p=0.1, inplace=False)\n",
      "          )\n",
      "        )\n",
      "        (intermediate): ViTIntermediate(\n",
      "          (dense): Linear(in_features=768, out_features=3072, bias=True)\n",
      "          (intermediate_act_fn): GELUActivation()\n",
      "        )\n",
      "        (output): ViTOutput(\n",
      "          (dense): Linear(in_features=3072, out_features=768, bias=True)\n",
      "          (dropout): Dropout(p=0.1, inplace=False)\n",
      "        )\n",
      "        (layernorm_before): LayerNorm((768,), eps=1e-12, elementwise_affine=True)\n",
      "        (layernorm_after): LayerNorm((768,), eps=1e-12, elementwise_affine=True)\n",
      "      )\n",
      "      (6): ViTLayer(\n",
      "        (attention): ViTAttention(\n",
      "          (attention): ViTSelfAttention(\n",
      "            (query): Linear(in_features=768, out_features=768, bias=True)\n",
      "            (key): Linear(in_features=768, out_features=768, bias=True)\n",
      "            (value): Linear(in_features=768, out_features=768, bias=True)\n",
      "            (dropout): Dropout(p=0.1, inplace=False)\n",
      "          )\n",
      "          (output): ViTSelfOutput(\n",
      "            (dense): Linear(in_features=768, out_features=768, bias=True)\n",
      "            (dropout): Dropout(p=0.1, inplace=False)\n",
      "          )\n",
      "        )\n",
      "        (intermediate): ViTIntermediate(\n",
      "          (dense): Linear(in_features=768, out_features=3072, bias=True)\n",
      "          (intermediate_act_fn): GELUActivation()\n",
      "        )\n",
      "        (output): ViTOutput(\n",
      "          (dense): Linear(in_features=3072, out_features=768, bias=True)\n",
      "          (dropout): Dropout(p=0.1, inplace=False)\n",
      "        )\n",
      "        (layernorm_before): LayerNorm((768,), eps=1e-12, elementwise_affine=True)\n",
      "        (layernorm_after): LayerNorm((768,), eps=1e-12, elementwise_affine=True)\n",
      "      )\n",
      "      (7): ViTLayer(\n",
      "        (attention): ViTAttention(\n",
      "          (attention): ViTSelfAttention(\n",
      "            (query): Linear(in_features=768, out_features=768, bias=True)\n",
      "            (key): Linear(in_features=768, out_features=768, bias=True)\n",
      "            (value): Linear(in_features=768, out_features=768, bias=True)\n",
      "            (dropout): Dropout(p=0.1, inplace=False)\n",
      "          )\n",
      "          (output): ViTSelfOutput(\n",
      "            (dense): Linear(in_features=768, out_features=768, bias=True)\n",
      "            (dropout): Dropout(p=0.1, inplace=False)\n",
      "          )\n",
      "        )\n",
      "        (intermediate): ViTIntermediate(\n",
      "          (dense): Linear(in_features=768, out_features=3072, bias=True)\n",
      "          (intermediate_act_fn): GELUActivation()\n",
      "        )\n",
      "        (output): ViTOutput(\n",
      "          (dense): Linear(in_features=3072, out_features=768, bias=True)\n",
      "          (dropout): Dropout(p=0.1, inplace=False)\n",
      "        )\n",
      "        (layernorm_before): LayerNorm((768,), eps=1e-12, elementwise_affine=True)\n",
      "        (layernorm_after): LayerNorm((768,), eps=1e-12, elementwise_affine=True)\n",
      "      )\n",
      "      (8): ViTLayer(\n",
      "        (attention): ViTAttention(\n",
      "          (attention): ViTSelfAttention(\n",
      "            (query): Linear(in_features=768, out_features=768, bias=True)\n",
      "            (key): Linear(in_features=768, out_features=768, bias=True)\n",
      "            (value): Linear(in_features=768, out_features=768, bias=True)\n",
      "            (dropout): Dropout(p=0.1, inplace=False)\n",
      "          )\n",
      "          (output): ViTSelfOutput(\n",
      "            (dense): Linear(in_features=768, out_features=768, bias=True)\n",
      "            (dropout): Dropout(p=0.1, inplace=False)\n",
      "          )\n",
      "        )\n",
      "        (intermediate): ViTIntermediate(\n",
      "          (dense): Linear(in_features=768, out_features=3072, bias=True)\n",
      "          (intermediate_act_fn): GELUActivation()\n",
      "        )\n",
      "        (output): ViTOutput(\n",
      "          (dense): Linear(in_features=3072, out_features=768, bias=True)\n",
      "          (dropout): Dropout(p=0.1, inplace=False)\n",
      "        )\n",
      "        (layernorm_before): LayerNorm((768,), eps=1e-12, elementwise_affine=True)\n",
      "        (layernorm_after): LayerNorm((768,), eps=1e-12, elementwise_affine=True)\n",
      "      )\n",
      "      (9): ViTLayer(\n",
      "        (attention): ViTAttention(\n",
      "          (attention): ViTSelfAttention(\n",
      "            (query): Linear(in_features=768, out_features=768, bias=True)\n",
      "            (key): Linear(in_features=768, out_features=768, bias=True)\n",
      "            (value): Linear(in_features=768, out_features=768, bias=True)\n",
      "            (dropout): Dropout(p=0.1, inplace=False)\n",
      "          )\n",
      "          (output): ViTSelfOutput(\n",
      "            (dense): Linear(in_features=768, out_features=768, bias=True)\n",
      "            (dropout): Dropout(p=0.1, inplace=False)\n",
      "          )\n",
      "        )\n",
      "        (intermediate): ViTIntermediate(\n",
      "          (dense): Linear(in_features=768, out_features=3072, bias=True)\n",
      "          (intermediate_act_fn): GELUActivation()\n",
      "        )\n",
      "        (output): ViTOutput(\n",
      "          (dense): Linear(in_features=3072, out_features=768, bias=True)\n",
      "          (dropout): Dropout(p=0.1, inplace=False)\n",
      "        )\n",
      "        (layernorm_before): LayerNorm((768,), eps=1e-12, elementwise_affine=True)\n",
      "        (layernorm_after): LayerNorm((768,), eps=1e-12, elementwise_affine=True)\n",
      "      )\n",
      "      (10): ViTLayer(\n",
      "        (attention): ViTAttention(\n",
      "          (attention): ViTSelfAttention(\n",
      "            (query): Linear(in_features=768, out_features=768, bias=True)\n",
      "            (key): Linear(in_features=768, out_features=768, bias=True)\n",
      "            (value): Linear(in_features=768, out_features=768, bias=True)\n",
      "            (dropout): Dropout(p=0.1, inplace=False)\n",
      "          )\n",
      "          (output): ViTSelfOutput(\n",
      "            (dense): Linear(in_features=768, out_features=768, bias=True)\n",
      "            (dropout): Dropout(p=0.1, inplace=False)\n",
      "          )\n",
      "        )\n",
      "        (intermediate): ViTIntermediate(\n",
      "          (dense): Linear(in_features=768, out_features=3072, bias=True)\n",
      "          (intermediate_act_fn): GELUActivation()\n",
      "        )\n",
      "        (output): ViTOutput(\n",
      "          (dense): Linear(in_features=3072, out_features=768, bias=True)\n",
      "          (dropout): Dropout(p=0.1, inplace=False)\n",
      "        )\n",
      "        (layernorm_before): LayerNorm((768,), eps=1e-12, elementwise_affine=True)\n",
      "        (layernorm_after): LayerNorm((768,), eps=1e-12, elementwise_affine=True)\n",
      "      )\n",
      "      (11): ViTLayer(\n",
      "        (attention): ViTAttention(\n",
      "          (attention): ViTSelfAttention(\n",
      "            (query): Linear(in_features=768, out_features=768, bias=True)\n",
      "            (key): Linear(in_features=768, out_features=768, bias=True)\n",
      "            (value): Linear(in_features=768, out_features=768, bias=True)\n",
      "            (dropout): Dropout(p=0.1, inplace=False)\n",
      "          )\n",
      "          (output): ViTSelfOutput(\n",
      "            (dense): Linear(in_features=768, out_features=768, bias=True)\n",
      "            (dropout): Dropout(p=0.1, inplace=False)\n",
      "          )\n",
      "        )\n",
      "        (intermediate): ViTIntermediate(\n",
      "          (dense): Linear(in_features=768, out_features=3072, bias=True)\n",
      "          (intermediate_act_fn): GELUActivation()\n",
      "        )\n",
      "        (output): ViTOutput(\n",
      "          (dense): Linear(in_features=3072, out_features=768, bias=True)\n",
      "          (dropout): Dropout(p=0.1, inplace=False)\n",
      "        )\n",
      "        (layernorm_before): LayerNorm((768,), eps=1e-12, elementwise_affine=True)\n",
      "        (layernorm_after): LayerNorm((768,), eps=1e-12, elementwise_affine=True)\n",
      "      )\n",
      "    )\n",
      "  )\n",
      "  (layernorm): LayerNorm((768,), eps=1e-12, elementwise_affine=True)\n",
      "  (pooler): ViTPooler(\n",
      "    (dense): Linear(in_features=768, out_features=768, bias=True)\n",
      "    (activation): Sequential(\n",
      "      (0): Dropout(p=0.1, inplace=False)\n",
      "      (1): Linear(in_features=768, out_features=2, bias=True)\n",
      "    )\n",
      "  )\n",
      ")\n"
     ]
    }
   ],
   "source": [
    "print(model)"
   ]
  },
  {
   "cell_type": "code",
   "execution_count": 3,
   "metadata": {},
   "outputs": [
    {
     "data": {
      "text/plain": [
       "86037506"
      ]
     },
     "execution_count": 3,
     "metadata": {},
     "output_type": "execute_result"
…
